node {
  name: "input"
  op: "Placeholder"
  attr {
    key: "dtype"
    value {
      type: DT_FLOAT
    }
  }
  attr {
    key: "shape"
    value {
      shape {
        dim {
          size: -1
        }
        dim {
          size: 100
        }
        dim {
          size: 4
        }
      }
    }
  }
}
node {
  name: "input_track"
  op: "Placeholder"
  attr {
    key: "dtype"
    value {
      type: DT_FLOAT
    }
  }
  attr {
    key: "shape"
    value {
      shape {
        dim {
          size: -1
        }
        dim {
          size: 4
        }
      }
    }
  }
}
node {
  name: "model_1/time_distributed/Reshape/shape"
  op: "Const"
  attr {
    key: "dtype"
    value {
      type: DT_INT32
    }
  }
  attr {
    key: "value"
    value {
      tensor {
        dtype: DT_INT32
        tensor_shape {
          dim {
            size: 2
          }
        }
        tensor_content: "\377\377\377\377\004\000\000\000"
      }
    }
  }
}
node {
  name: "model_1/time_distributed/Reshape"
  op: "Reshape"
  input: "input"
  input: "model_1/time_distributed/Reshape/shape"
  attr {
    key: "T"
    value {
      type: DT_FLOAT
    }
  }
  attr {
    key: "Tshape"
    value {
      type: DT_INT32
    }
  }
}
node {
  name: "model_1/time_distributed/model/masking/NotEqual/y"
  op: "Const"
  attr {
    key: "dtype"
    value {
      type: DT_FLOAT
    }
  }
  attr {
    key: "value"
    value {
      tensor {
        dtype: DT_FLOAT
        tensor_shape {
        }
        float_val: 0.0
      }
    }
  }
}
node {
  name: "model_1/time_distributed/model/masking/NotEqual"
  op: "NotEqual"
  input: "model_1/time_distributed/Reshape"
  input: "model_1/time_distributed/model/masking/NotEqual/y"
  attr {
    key: "T"
    value {
      type: DT_FLOAT
    }
  }
  attr {
    key: "incompatible_shape_error"
    value {
      b: true
    }
  }
}
node {
  name: "model_1/time_distributed/model/masking/Any/reduction_indices"
  op: "Const"
  attr {
    key: "dtype"
    value {
      type: DT_INT32
    }
  }
  attr {
    key: "value"
    value {
      tensor {
        dtype: DT_INT32
        tensor_shape {
        }
        int_val: -1
      }
    }
  }
}
node {
  name: "model_1/time_distributed/model/masking/Any"
  op: "Any"
  input: "model_1/time_distributed/model/masking/NotEqual"
  input: "model_1/time_distributed/model/masking/Any/reduction_indices"
  attr {
    key: "Tidx"
    value {
      type: DT_INT32
    }
  }
  attr {
    key: "keep_dims"
    value {
      b: true
    }
  }
}
node {
  name: "model_1/time_distributed/model/masking/Cast"
  op: "Cast"
  input: "model_1/time_distributed/model/masking/Any"
  attr {
    key: "DstT"
    value {
      type: DT_FLOAT
    }
  }
  attr {
    key: "SrcT"
    value {
      type: DT_BOOL
    }
  }
  attr {
    key: "Truncate"
    value {
      b: false
    }
  }
}
node {
  name: "model_1/time_distributed/model/masking/mul"
  op: "Mul"
  input: "model_1/time_distributed/Reshape"
  input: "model_1/time_distributed/model/masking/Cast"
  attr {
    key: "T"
    value {
      type: DT_FLOAT
    }
  }
}
node {
  name: "model_1/time_distributed/model/dense/MatMul/ReadVariableOp/resource"
  op: "Const"
  attr {
    key: "dtype"
    value {
      type: DT_FLOAT
    }
  }
  attr {
    key: "value"
    value {
      tensor {
        dtype: DT_FLOAT
        tensor_shape {
          dim {
            size: 4
          }
          dim {
            size: 64
          }
        }
        tensor_content: "…"
      }
    }
  }
}
node {
  name: "model_1/time_distributed/model/dense/MatMul/ReadVariableOp"
  op: "Identity"
  input: "model_1/time_distributed/model/dense/MatMul/ReadVariableOp/resource"
  attr {
    key: "T"
    value {
      type: DT_FLOAT
    }
  }
}
node {
  name: "model_1/time_distributed/model/dense/MatMul"
  op: "MatMul"
  input: "model_1/time_distributed/model/masking/mul"
  input: "model_1/time_distributed/model/dense/MatMul/ReadVariableOp"
  attr {
    key: "T"
    value {
      type: DT_FLOAT
    }
  }
  attr {
    key: "transpose_a"
    value {
      b: false
    }
  }
  attr {
    key: "transpose_b"
    value {
      b: false
    }
  }
}
node {
  name: "model_1/time_distributed/model/dense/BiasAdd/ReadVariableOp/resource"
  op: "Const"
  attr {
    key: "dtype"
    value {
      type: DT_FLOAT
    }
  }
  attr {
    key: "value"
    value {
      tensor {
        dtype: DT_FLOAT
        tensor_shape {
          dim {
            size: 64
          }
        }
        tensor_content: "…"
      }
    }
  }
}
node {
  name: "model_1/time_distributed/model/dense/BiasAdd/ReadVariableOp"
  op: "Identity"
  input: "model_1/time_distributed/model/dense/BiasAdd/ReadVariableOp/resource"
  attr {
    key: "T"
    value {
      type: DT_FLOAT
    }
  }
}
node {
  name: "model_1/time_distributed/model/dense/BiasAdd"
  op: "BiasAdd"
  input: "model_1/time_distributed/model/dense/MatMul"
  input: "model_1/time_distributed/model/dense/BiasAdd/ReadVariableOp"
  attr {
    key: "T"
    value {
      type: DT_FLOAT
    }
  }
  attr {
    key: "data_format"
    value {
      s: "NHWC"
    }
  }
}
node {
  name: "model_1/time_distributed/model/activation/Relu"
  op: "Relu"
  input: "model_1/time_distributed/model/dense/BiasAdd"
  attr {
    key: "T"
    value {
      type: DT_FLOAT
    }
  }
}
node {
  name: "model_1/time_distributed/model/dense_1/MatMul/ReadVariableOp/resource"
  op: "Const"
  attr {
    key: "dtype"
    value {
      type: DT_FLOAT
    }
  }
  attr {
    key: "value"
    value {
      tensor {
        dtype: DT_FLOAT
        tensor_shape {
          dim {
            size: 64
          }
          dim {
            size: 64
          }
        }
        tensor_content: "…"
      }
    }
  }
}
node {
  name: "model_1/time_distributed/model/dense_1/MatMul/ReadVariableOp"
  op: "Identity"
  input: "model_1/time_distributed/model/dense_1/MatMul/ReadVariableOp/resource"
  attr {
    key: "T"
    value {
      type: DT_FLOAT
    }
  }
}
node {
  name: "model_1/time_distributed/model/dense_1/MatMul"
  op: "MatMul"
  input: "model_1/time_distributed/model/activation/Relu"
  input: "model_1/time_distributed/model/dense_1/MatMul/ReadVariableOp"
  attr {
    key: "T"
    value {
      type: DT_FLOAT
    }
  }
  attr {
    key: "transpose_a"
    value {
      b: false
    }
  }
  attr {
    key: "transpose_b"
    value {
      b: false
    }
  }
}
node {
  name: "model_1/time_distributed/model/dense_1/BiasAdd/ReadVariableOp/resource"
  op: "Const"
  attr {
    key: "dtype"
    value {
      type: DT_FLOAT
    }
  }
  attr {
    key: "value"
    value {
      tensor {
        dtype: DT_FLOAT
        tensor_shape {
          dim {
            size: 64
          }
        }
        tensor_content: "…"
      }
    }
  }
}
node {
  name: "model_1/time_distributed/model/dense_1/BiasAdd/ReadVariableOp"
  op: "Identity"
  input: "model_1/time_distributed/model/dense_1/BiasAdd/ReadVariableOp/resource"
  attr {
    key: "T"
    value {
      type: DT_FLOAT
    }
  }
}
node {
  name: "model_1/time_distributed/model/dense_1/BiasAdd"
  op: "BiasAdd"
  input: "model_1/time_distributed/model/dense_1/MatMul"
  input: "model_1/time_distributed/model/dense_1/BiasAdd/ReadVariableOp"
  attr {
    key: "T"
    value {
      type: DT_FLOAT
    }
  }
  attr {
    key: "data_format"
    value {
      s: "NHWC"
    }
  }
}
node {
  name: "model_1/time_distributed/model/activation_1/Relu"
  op: "Relu"
  input: "model_1/time_distributed/model/dense_1/BiasAdd"
  attr {
    key: "T"
    value {
      type: DT_FLOAT
    }
  }
}
node {
  name: "model_1/time_distributed/model/dense_2/MatMul/ReadVariableOp/resource"
  op: "Const"
  attr {
    key: "dtype"
    value {
      type: DT_FLOAT
    }
  }
  attr {
    key: "value"
    value {
      tensor {
        dtype: DT_FLOAT
        tensor_shape {
          dim {
            size: 64
          }
          dim {
            size: 256
          }
        }
        tensor_content: "…"
      }
    }
  }
}
node {
  name: "model_1/time_distributed/model/dense_2/MatMul/ReadVariableOp"
  op: "Identity"
  input: "model_1/time_distributed/model/dense_2/MatMul/ReadVariableOp/resource"
  attr {
    key: "T"
    value {
      type: DT_FLOAT
    }
  }
}
node {
  name: "model_1/time_distributed/model/dense_2/MatMul"
  op: "MatMul"
  input: "model_1/time_distributed/model/activation_1/Relu"
  input: "model_1/time_distributed/model/dense_2/MatMul/ReadVariableOp"
  attr {
    key: "T"
    value {
      type: DT_FLOAT
    }
  }
  attr {
    key: "transpose_a"
    value {
      b: false
    }
  }
  attr {
    key: "transpose_b"
    value {
      b: false
    }
  }
}
node {
  name: "model_1/time_distributed/model/dense_2/BiasAdd/ReadVariableOp/resource"
  op: "Const"
  attr {
    key: "dtype"
    value {
      type: DT_FLOAT
    }
  }
  attr {
    key: "value"
    value {
      tensor {
        dtype: DT_FLOAT
        tensor_shape {
          dim {
            size: 256
          }
        }
        tensor_content: "…"
      }
    }
  }
}
node {
  name: "model_1/time_distributed/model/dense_2/BiasAdd/ReadVariableOp"
  op: "Identity"
  input: "model_1/time_distributed/model/dense_2/BiasAdd/ReadVariableOp/resource"
  attr {
    key: "T"
    value {
      type: DT_FLOAT
    }
  }
}
node {
  name: "model_1/time_distributed/model/dense_2/BiasAdd"
  op: "BiasAdd"
  input: "model_1/time_distributed/model/dense_2/MatMul"
  input: "model_1/time_distributed/model/dense_2/BiasAdd/ReadVariableOp"
  attr {
    key: "T"
    value {
      type: DT_FLOAT
    }
  }
  attr {
    key: "data_format"
    value {
      s: "NHWC"
    }
  }
}
node {
  name: "model_1/time_distributed/Reshape_1/shape"
  op: "Const"
  attr {
    key: "dtype"
    value {
      type: DT_INT32
    }
  }
  attr {
    key: "value"
    value {
      tensor {
        dtype: DT_INT32
        tensor_shape {
          dim {
            size: 3
          }
        }
        tensor_content: "\377\377\377\377d\000\000\000\000\001\000\000"
      }
    }
  }
}
node {
  name: "model_1/time_distributed/Reshape_1"
  op: "Reshape"
  input: "model_1/time_distributed/model/dense_2/BiasAdd"
  input: "model_1/time_distributed/Reshape_1/shape"
  attr {
    key: "T"
    value {
      type: DT_FLOAT
    }
  }
  attr {
    key: "Tshape"
    value {
      type: DT_INT32
    }
  }
}
node {
  name: "model_1/lambda/Sum/reduction_indices"
  op: "Const"
  attr {
    key: "dtype"
    value {
      type: DT_INT32
    }
  }
  attr {
    key: "value"
    value {
      tensor {
        dtype: DT_INT32
        tensor_shape {
        }
        int_val: 1
      }
    }
  }
}
node {
  name: "model_1/lambda/Sum"
  op: "Sum"
  input: "model_1/time_distributed/Reshape_1"
  input: "model_1/lambda/Sum/reduction_indices"
  attr {
    key: "T"
    value {
      type: DT_FLOAT
    }
  }
  attr {
    key: "Tidx"
    value {
      type: DT_INT32
    }
  }
  attr {
    key: "keep_dims"
    value {
      b: false
    }
  }
}
node {
  name: "model_1/concatenate/concat/axis"
  op: "Const"
  attr {
    key: "dtype"
    value {
      type: DT_INT32
    }
  }
  attr {
    key: "value"
    value {
      tensor {
        dtype: DT_INT32
        tensor_shape {
        }
        int_val: 1
      }
    }
  }
}
node {
  name: "model_1/concatenate/concat"
  op: "ConcatV2"
  input: "model_1/lambda/Sum"
  input: "input_track"
  input: "model_1/concatenate/concat/axis"
  attr {
    key: "N"
    value {
      i: 2
    }
  }
  attr {
    key: "T"
    value {
      type: DT_FLOAT
    }
  }
  attr {
    key: "Tidx"
    value {
      type: DT_INT32
    }
  }
}
node {
  name: "model_1/dense_3/MatMul/ReadVariableOp/resource"
  op: "Const"
  attr {
    key: "dtype"
    value {
      type: DT_FLOAT
    }
  }
  attr {
    key: "value"
    value {
      tensor {
        dtype: DT_FLOAT
        tensor_shape {
          dim {
            size: 260
          }
          dim {
            size: 64
          }
        }
        tensor_content: "…"
      }
    }
  }
}
node {
  name: "model_1/dense_3/MatMul/ReadVariableOp"
  op: "Identity"
  input: "model_1/dense_3/MatMul/ReadVariableOp/resource"
  attr {
    key: "T"
    value {
      type: DT_FLOAT
    }
  }
}
node {
  name: "model_1/dense_3/MatMul"
  op: "MatMul"
  input: "model_1/concatenate/concat"
  input: "model_1/dense_3/MatMul/ReadVariableOp"
  attr {
    key: "T"
    value {
      type: DT_FLOAT
    }
  }
  attr {
    key: "transpose_a"
    value {
      b: false
    }
  }
  attr {
    key: "transpose_b"
    value {
      b: false
    }
  }
}
node {
  name: "model_1/dense_3/BiasAdd/ReadVariableOp/resource"
  op: "Const"
  attr {
    key: "dtype"
    value {
      type: DT_FLOAT
    }
  }
  attr {
    key: "value"
    value {
      tensor {
        dtype: DT_FLOAT
        tensor_shape {
          dim {
            size: 64
          }
        }
        tensor_content: "…"
      }
    }
  }
}
node {
  name: "model_1/dense_3/BiasAdd/ReadVariableOp"
  op: "Identity"
  input: "model_1/dense_3/BiasAdd/ReadVariableOp/resource"
  attr {
    key: "T"
    value {
      type: DT_FLOAT
    }
  }
}
node {
  name: "model_1/dense_3/BiasAdd"
  op: "BiasAdd"
  input: "model_1/dense_3/MatMul"
  input: "model_1/dense_3/BiasAdd/ReadVariableOp"
  attr {
    key: "T"
    value {
      type: DT_FLOAT
    }
  }
  attr {
    key: "data_format"
    value {
      s: "NHWC"
    }
  }
}
node {
  name: "model_1/activation_3/Relu"
  op: "Relu"
  input: "model_1/dense_3/BiasAdd"
  attr {
    key: "T"
    value {
      type: DT_FLOAT
    }
  }
}
node {
  name: "model_1/dense_4/MatMul/ReadVariableOp/resource"
  op: "Const"
  attr {
    key: "dtype"
    value {
      type: DT_FLOAT
    }
  }
  attr {
    key: "value"
    value {
      tensor {
        dtype: DT_FLOAT
        tensor_shape {
          dim {
            size: 64
          }
          dim {
            size: 64
          }
        }
        tensor_content: "…"
      }
    }
  }
}
node {
  name: "model_1/dense_4/MatMul/ReadVariableOp"
  op: "Identity"
  input: "model_1/dense_4/MatMul/ReadVariableOp/resource"
  attr {
    key: "T"
    value {
      type: DT_FLOAT
    }
  }
}
node {
  name: "model_1/dense_4/MatMul"
  op: "MatMul"
  input: "model_1/activation_3/Relu"
  input: "model_1/dense_4/MatMul/ReadVariableOp"
  attr {
    key: "T"
    value {
      type: DT_FLOAT
    }
  }
  attr {
    key: "transpose_a"
    value {
      b: false
    }
  }
  attr {
    key: "transpose_b"
    value {
      b: false
    }
  }
}
node {
  name: "model_1/dense_4/BiasAdd/ReadVariableOp/resource"
  op: "Const"
  attr {
    key: "dtype"
    value {
      type: DT_FLOAT
    }
  }
  attr {
    key: "value"
    value {
      tensor {
        dtype: DT_FLOAT
        tensor_shape {
          dim {
            size: 64
          }
        }
        tensor_content: "…"
      }
    }
  }
}
node {
  name: "model_1/dense_4/BiasAdd/ReadVariableOp"
  op: "Identity"
  input: "model_1/dense_4/BiasAdd/ReadVariableOp/resource"
  attr {
    key: "T"
    value {
      type: DT_FLOAT
    }
  }
}
node {
  name: "model_1/dense_4/BiasAdd"
  op: "BiasAdd"
  input: "model_1/dense_4/MatMul"
  input: "model_1/dense_4/BiasAdd/ReadVariableOp"
  attr {
    key: "T"
    value {
      type: DT_FLOAT
    }
  }
  attr {
    key: "data_format"
    value {
      s: "NHWC"
    }
  }
}
node {
  name: "model_1/activation_4/Relu"
  op: "Relu"
  input: "model_1/dense_4/BiasAdd"
  attr {
    key: "T"
    value {
      type: DT_FLOAT
    }
  }
}
node {
  name: "model_1/dense_5/MatMul/ReadVariableOp/resource"
  op: "Const"
  attr {
    key: "dtype"
    value {
      type: DT_FLOAT
    }
  }
  attr {
    key: "value"
    value {
      tensor {
        dtype: DT_FLOAT
        tensor_shape {
          dim {
            size: 64
          }
          dim {
            size: 64
          }
        }
        tensor_content: "…"
      }
    }
  }
}
node {
  name: "model_1/dense_5/MatMul/ReadVariableOp"
  op: "Identity"
  input: "model_1/dense_5/MatMul/ReadVariableOp/resource"
  attr {
    key: "T"
    value {
      type: DT_FLOAT
    }
  }
}
node {
  name: "model_1/dense_5/MatMul"
  op: "MatMul"
  input: "model_1/activation_4/Relu"
  input: "model_1/dense_5/MatMul/ReadVariableOp"
  attr {
    key: "T"
    value {
      type: DT_FLOAT
    }
  }
  attr {
    key: "transpose_a"
    value {
      b: false
    }
  }
  attr {
    key: "transpose_b"
    value {
      b: false
    }
  }
}
node {
  name: "model_1/dense_5/BiasAdd/ReadVariableOp/resource"
  op: "Const"
  attr {
    key: "dtype"
    value {
      type: DT_FLOAT
    }
  }
  attr {
    key: "value"
    value {
      tensor {
        dtype: DT_FLOAT
        tensor_shape {
          dim {
            size: 64
          }
        }
        tensor_content: "…"
      }
    }
  }
}
node {
  name: "model_1/dense_5/BiasAdd/ReadVariableOp"
  op: "Identity"
  input: "model_1/dense_5/BiasAdd/ReadVariableOp/resource"
  attr {
    key: "T"
    value {
      type: DT_FLOAT
    }
  }
}
node {
  name: "model_1/dense_5/BiasAdd"
  op: "BiasAdd"
  input: "model_1/dense_5/MatMul"
  input: "model_1/dense_5/BiasAdd/ReadVariableOp"
  attr {
    key: "T"
    value {
      type: DT_FLOAT
    }
  }
  attr {
    key: "data_format"
    value {
      s: "NHWC"
    }
  }
}
node {
  name: "model_1/activation_5/Relu"
  op: "Relu"
  input: "model_1/dense_5/BiasAdd"
  attr {
    key: "T"
    value {
      type: DT_FLOAT
    }
  }
}
node {
  name: "model_1/dense_6/MatMul/ReadVariableOp/resource"
  op: "Const"
  attr {
    key: "dtype"
    value {
      type: DT_FLOAT
    }
  }
  attr {
    key: "value"
    value {
      tensor {
        dtype: DT_FLOAT
        tensor_shape {
          dim {
            size: 64
          }
          dim {
            size: 2
          }
        }
        tensor_content: "…"
      }
    }
  }
}
node {
  name: "model_1/dense_6/MatMul/ReadVariableOp"
  op: "Identity"
  input: "model_1/dense_6/MatMul/ReadVariableOp/resource"
  attr {
    key: "T"
    value {
      type: DT_FLOAT
    }
  }
}
node {
  name: "model_1/dense_6/MatMul"
  op: "MatMul"
  input: "model_1/activation_5/Relu"
  input: "model_1/dense_6/MatMul/ReadVariableOp"
  attr {
    key: "T"
    value {
      type: DT_FLOAT
    }
  }
  attr {
    key: "transpose_a"
    value {
      b: false
    }
  }
  attr {
    key: "transpose_b"
    value {
      b: false
    }
  }
}
node {
  name: "model_1/dense_6/BiasAdd/ReadVariableOp/resource"
  op: "Const"
  attr {
    key: "dtype"
    value {
      type: DT_FLOAT
    }
  }
  attr {
    key: "value"
    value {
      tensor {
        dtype: DT_FLOAT
        tensor_shape {
          dim {
            size: 2
          }
        }
        tensor_content: "\301\242\274;\304\242\274\273"
      }
    }
  }
}
node {
  name: "model_1/dense_6/BiasAdd/ReadVariableOp"
  op: "Identity"
  input: "model_1/dense_6/BiasAdd/ReadVariableOp/resource"
  attr {
    key: "T"
    value {
      type: DT_FLOAT
    }
  }
}
node {
  name: "model_1/dense_6/BiasAdd"
  op: "BiasAdd"
  input: "model_1/dense_6/MatMul"
  input: "model_1/dense_6/BiasAdd/ReadVariableOp"
  attr {
    key: "T"
    value {
      type: DT_FLOAT
    }
  }
  attr {
    key: "data_format"
    value {
      s: "NHWC"
    }
  }
}
node {
  name: "model_1/output_xyz/Softmax"
  op: "Softmax"
  input: "model_1/dense_6/BiasAdd"
  attr {
    key: "T"
    value {
      type: DT_FLOAT
    }
  }
}
node {
  name: "model_1/time_distributed/dense/MatMul/ReadVariableOp"
  op: "Identity"
  input: "model_1/time_distributed/model/dense/MatMul/ReadVariableOp/resource"
  attr {
    key: "T"
    value {
      type: DT_FLOAT
    }
  }
}
node {
  name: "model_1/time_distributed/dense_1/BiasAdd/ReadVariableOp"
  op: "Identity"
  input: "model_1/time_distributed/model/dense_1/BiasAdd/ReadVariableOp/resource"
  attr {
    key: "T"
    value {
      type: DT_FLOAT
    }
  }
}
node {
  name: "model_1/time_distributed/dense_1/MatMul/ReadVariableOp"
  op: "Identity"
  input: "model_1/time_distributed/model/dense_1/MatMul/ReadVariableOp/resource"
  attr {
    key: "T"
    value {
      type: DT_FLOAT
    }
  }
}
node {
  name: "model_1/time_distributed/dense/BiasAdd/ReadVariableOp"
  op: "Identity"
  input: "model_1/time_distributed/model/dense/BiasAdd/ReadVariableOp/resource"
  attr {
    key: "T"
    value {
      type: DT_FLOAT
    }
  }
}
node {
  name: "model_1/time_distributed/dense_2/BiasAdd/ReadVariableOp"
  op: "Identity"
  input: "model_1/time_distributed/model/dense_2/BiasAdd/ReadVariableOp/resource"
  attr {
    key: "T"
    value {
      type: DT_FLOAT
    }
  }
}
node {
  name: "model_1/time_distributed/dense_2/MatMul/ReadVariableOp"
  op: "Identity"
  input: "model_1/time_distributed/model/dense_2/MatMul/ReadVariableOp/resource"
  attr {
    key: "T"
    value {
      type: DT_FLOAT
    }
  }
}
node {
  name: "NoOp"
  op: "NoOp"
  input: "^model_1/dense_3/BiasAdd/ReadVariableOp"
  input: "^model_1/dense_3/MatMul/ReadVariableOp"
  input: "^model_1/dense_4/BiasAdd/ReadVariableOp"
  input: "^model_1/dense_4/MatMul/ReadVariableOp"
  input: "^model_1/dense_5/BiasAdd/ReadVariableOp"
  input: "^model_1/dense_5/MatMul/ReadVariableOp"
  input: "^model_1/dense_6/BiasAdd/ReadVariableOp"
  input: "^model_1/dense_6/MatMul/ReadVariableOp"
  input: "^model_1/time_distributed/dense/BiasAdd/ReadVariableOp"
  input: "^model_1/time_distributed/dense/MatMul/ReadVariableOp"
  input: "^model_1/time_distributed/dense_1/BiasAdd/ReadVariableOp"
  input: "^model_1/time_distributed/dense_1/MatMul/ReadVariableOp"
  input: "^model_1/time_distributed/dense_2/BiasAdd/ReadVariableOp"
  input: "^model_1/time_distributed/dense_2/MatMul/ReadVariableOp"
  input: "^model_1/time_distributed/model/dense/BiasAdd/ReadVariableOp"
  input: "^model_1/time_distributed/model/dense/MatMul/ReadVariableOp"
  input: "^model_1/time_distributed/model/dense_1/BiasAdd/ReadVariableOp"
  input: "^model_1/time_distributed/model/dense_1/MatMul/ReadVariableOp"
  input: "^model_1/time_distributed/model/dense_2/BiasAdd/ReadVariableOp"
  input: "^model_1/time_distributed/model/dense_2/MatMul/ReadVariableOp"
  attr {
    key: "_acd_function_control_output"
    value {
      b: true
    }
  }
}
node {
  name: "Identity"
  op: "Identity"
  input: "model_1/output_xyz/Softmax"
  input: "^NoOp"
  attr {
    key: "T"
    value {
      type: DT_FLOAT
    }
  }
}
versions {
  producer: 808
}
